…
      "cell_type": "code",
      "source": [
        "# describe model\n",
        "s = reset_tf_session()  # clear default graph\n",
        "model = make_model()\n",
        "model.summary()"
      ],
      "execution_count": 62,
      "outputs": [
        {
          "output_type": "stream",
          "text": [
            "_________________________________________________________________\n",
            "Layer (type)                 Output Shape              Param #   \n",
            "=================================================================\n",
            "conv2d_1 (Conv2D)            (None, 64, 64, 16)        160       \n",
            "_________________________________________________________________\n",
            "batch_normalization_1 (Batch (None, 64, 64, 16)        64        \n",
            "_________________________________________________________________\n",
            "leaky_re_lu_1 (LeakyReLU)    (None, 64, 64, 16)        0         \n",
            "_________________________________________________________________\n",
            "conv2d_2 (Conv2D)            (None, 64, 64, 32)        4640      \n",
            "_________________________________________________________________\n",
            "batch_normalization_2 (Batch (None, 64, 64, 32)        128       \n",
            "_________________________________________________________________\n",
            "leaky_re_lu_2 (LeakyReLU)    (None, 64, 64, 32)        0         \n",
            "_________________________________________________________________\n",
            "max_pooling2d_1 (MaxPooling2 (None, 32, 32, 32)        0         \n",
            "_________________________________________________________________\n",
            "dropout_1 (Dropout)          (None, 32, 32, 32)        0         \n",
            "_________________________________________________________________\n",
            "conv2d_3 (Conv2D)            (None, 32, 32, 32)        9248      \n",
            "_________________________________________________________________\n",
            "batch_normalization_3 (Batch (None, 32, 32, 32)        128       \n",
            "_________________________________________________________________\n",
            "leaky_re_lu_3 (LeakyReLU)    (None, 32, 32, 32)        0         \n",
            "_________________________________________________________________\n",
            "conv2d_4 (Conv2D)            (None, 32, 32, 64)        18496     \n",
            "_________________________________________________________________\n",
            "batch_normalization_4 (Batch (None, 32, 32, 64)        256       \n",
            "_________________________________________________________________\n",
            "leaky_re_lu_4 (LeakyReLU)    (None, 32, 32, 64)        0         \n",
            "_________________________________________________________________\n",
            "max_pooling2d_2 (MaxPooling2 (None, 16, 16, 64)        0         \n",
            "_________________________________________________________________\n",
            "dropout_2 (Dropout)          (None, 16, 16, 64)        0         \n",
            "_________________________________________________________________\n",
            "conv2d_5 (Conv2D)            (None, 16, 16, 64)        36928     \n",
            "_________________________________________________________________\n",
            "batch_normalization_5 (Batch (None, 16, 16, 64)        256       \n",
            "_________________________________________________________________\n",
            "leaky_re_lu_5 (LeakyReLU)    (None, 16, 16, 64)        0         \n",
            "_________________________________________________________________\n",
            "conv2d_6 (Conv2D)            (None, 16, 16, 64)        36928     \n",
            "_________________________________________________________________\n",
            "batch_normalization_6 (Batch (None, 16, 16, 64)        256       \n",
            "_________________________________________________________________\n",
            "leaky_re_lu_6 (LeakyReLU)    (None, 16, 16, 64)        0         \n",
            "_________________________________________________________________\n",
            "max_pooling2d_3 (MaxPooling2 (None, 8, 8, 64)          0         \n",
            "_________________________________________________________________\n",
            "dropout_3 (Dropout)          (None, 8, 8, 64)          0         \n",
            "_________________________________________________________________\n",
            "flatten_1 (Flatten)          (None, 4096)              0         \n",
            "_________________________________________________________________\n",
            "dense_1 (Dense)              (None, 256)               1048832   \n",
            "_________________________________________________________________\n",
            "leaky_re_lu_7 (LeakyReLU)    (None, 256)               0         \n",
            "_________________________________________________________________\n",
            "dropout_4 (Dropout)          (None, 256)               0         \n",
            "_________________________________________________________________\n",
            "dense_2 (Dense)              (None, 340)               87380     \n",
            "_________________________________________________________________\n",
            "activation_1 (Activation)    (None, 340)               0         \n",
            "=================================================================\n",
            "Total params: 1,243,700\n",
            "Trainable params: 1,243,156\n",
            "Non-trainable params: 544\n",
            "_________________________________________________________________\n"
          ],
          "name": "stdout"
        },
        {
          "output_type": "stream",
…
